…
.8, warmup_bias_lr=0.0, box=7.5, cls=0.5, dfl=1.5, pose=12.0, kobj=1.0, nbs=64, hsv_h=0.015, hsv_s=0.7, hsv_v=0.4, degrees=0.0, translate=0.1, scale=0.5, shear=0.0, perspective=0.0, flipud=0.0, fliplr=0.5, bgr=0.0, mosaic=1, mixup=0.0, copy_paste=0, copy_paste_mode=flip, auto_augment=randaugment, erasing=0.4, crop_fraction=1.0, cfg=None, tracker=botsort.yaml, save_dir=cv_sheep_detection/fold_1
Overriding model.yaml nc=80 with nc=1

                   from  n    params  module                                       arguments                     
  0                  -1  1       928  ultralytics.nn.modules.conv.Conv             [3, 32, 3, 2]                 
  1                  -1  1      9344  ultralytics.nn.modules.conv.Conv             [32, 64, 3, 2, 1, 2]          
  2                  -1  1     26080  ultralytics.nn.modules.block.C3k2            [64, 128, 1, False, 0.25]     
  3                  -1  1     37120  ultralytics.nn.modules.conv.Conv             [128, 128, 3, 2, 1, 4]        
  4                  -1  1    103360  ultralytics.nn.modules.block.C3k2            [128, 256, 1, False, 0.25]    
  5                  -1  1    590336  ultralytics.nn.modules.conv.Conv             [256, 256, 3, 2]              
  6                  -1  2    677120  ultralytics.nn.modules.block.A2C2f           [256, 256, 2, True, 4]        
  7                  -1  1   1180672  ultralytics.nn.modules.conv.Conv             [256, 512, 3, 2]              
  8                  -1  2   2664960  ultralytics.nn.modules.block.A2C2f           [512, 512, 2, True, 1]        
  9                  -1  1         0  torch.nn.modules.upsampling.Upsample         [None, 2, 'nearest']          
 10             [-1, 6]  1         0  ultralytics.nn.modules.conv.Concat           [1]                           
 11                  -1  1    345856  ultralytics.nn.modules.block.A2C2f           [768, 256, 1, False, -1]      
 12                  -1  1         0  torch.nn.modules.upsampling.Upsample         [None, 2, 'nearest']          
 13             [-1, 4]  1         0  ultralytics.nn.modules.conv.Concat           [1]                           
 14                  -1  1     95104  ultralytics.nn.modules.block.A2C2f           [512, 128, 1, False, -1]      
 15                  -1  1         0  torch.nn.modules.upsampling.Upsample         [None, 2, 'nearest']          
 16             [-1, 2]  1         0  ultralytics.nn.modules.conv.Concat           [1]                           
 17                  -1  1     24000  ultralytics.nn.modules.block.A2C2f           [256, 64, 1, False, -1]       
 18                  -1  1         0  torch.nn.modules.upsampling.Upsample         [None, 2, 'nearest']          
 19             [-1, 0]  1         0  ultralytics.nn.modules.conv.Concat           [1]                           
 20                  -1  1      3000  ultralytics.nn.modules.block.C3k2            [96, 32, 1, False, 0.25]      
 21                  -1  1      9280  ultralytics.nn.modules.conv.Conv             [32, 32, 3, 2]                
 22            [-1, 17]  1         0  ultralytics.nn.modules.conv.Concat           [1]                           
 23                  -1  1      8688  ultralytics.nn.modules.block.C3k2            [96, 64, 1, False, 0.25]      
 24                  -1  1     36992  ultralytics.nn.modules.conv.Conv             [64, 64, 3, 2]                
 25            [-1, 14]  1         0  ultralytics.nn.modules.conv.Concat           [1]                           
 26                  -1  1     34272  ultralytics.nn.modules.block.C3k2            [192, 128, 1, False, 0.25]    
 27        [20, 23, 26]  1    267123  ultralytics.nn.modules.head.Detect           [1, [32, 64, 128]]            
YOLOv12s summary: 513 layers, 6,114,235 parameters, 6,114,219 gradients, 35.9 GFLOPs

Freezing layer 'model.27.dfl.conv.weight'
[34m[1mAMP: [0mrunning Automatic Mixed Precision (AMP) checks...
[34m[1mAMP: [0mchecks skipped ⚠️. Unable to load YOLO11n for AMP checks due to possible Ultralytics package modifications. Setting 'amp=True'. If you experience zero-mAP or NaN losses you can disable AMP with amp=False.
…
